03-파이토치로_구현하는_ANN/model.pt (torch, 1815 bytes, 3 tensors)

linear_1.weight f4 [5, 2]
00000000: 7482 01c0 fd82 983f 7497 18be 20d7 253d
00000010: e527 b0bf ed25 8fbf eee0 f3be dd8a c4be
00000020: aad4 9a3f 55ea edbf
-2.0235872 1.1914974 -0.14901525 0.040488362 -1.3762175 -1.1183449 -0.47632545 -0.38387194
1.209615 -1.8587137

linear_1.bias f4 [5]
00000000: 4211 b7be 2ead 10bf 1bad c3bd 301f 17bd
00000010: 8382 e2bd
-0.35755354 -0.5651425 -0.095545016 -0.036894977 -0.110600494

linear_2.weight f4 [1, 5]
00000000: 5829 1540 98d6 da3e 7f09 e0bf 1b17 0ebf
00000010: b1c2 0540
2.3306484 0.42741847 -1.7502898 -0.55504006 2.090008
