03-파이토치로_구현하는_ANN/model.pt (torch_old, 893 bytes, 3 tensors)

linear_1.weight f4 [5, 2]
0	0xbf7332b9	-0.9499927
1	0xbf2c9706	-0.67417943
2	0x3ef30505	0.47464767
3	0x3eb6f3ba	0.35732824
4	0xbfb74184	-1.4316869
5	0x3fa893b0	1.3170071
6	0x3f9f5fd5	1.2451121
7	0x3fed7eff	1.8554381
8	0xbfe66858	-1.8000593
9	0xbf939048	-1.1528406

linear_1.bias f4 [5]
0	0xbe6e9e67	-0.23302613
1	0xbe9336b0	-0.2875266
2	0xbe980ada	-0.2969578
3	0xbdfd1e30	-0.123592734
4	0xbe506e76	-0.20354638

linear_2.weight f4 [1, 5]
0	0xbf5dc620	-0.8663044
1	0xbe62c28b	-0.22144525
2	0x3ff69b40	1.9266129
3	0xc010779a	-2.2573
4	0xc0043693	-2.065831
